…

2024-05-31,17:21:24 | INFO | Teacher model mobileclip_s0 loaded successfully
2024-05-31,17:21:24 | INFO | Loaded ViT-L-14 model config.
2024-05-31,17:21:28 | INFO | Teacher model ViT-L-14 loaded successfully
2024-05-31,17:21:28 | INFO | Loaded ViT-L-14-336 model config.
2024-05-31,17:21:33 | INFO | Teacher model ViT-L-14-336 loaded successfully
2024-05-31,17:21:33 | INFO | model:AppleMobileCLIP(
  (visual): MCi(
    (model): FastViT(
      (patch_embed): Sequential(
        (0): MobileOneBlock(
          (se): Identity()
          (activation): GELU(approximate='none')
          (reparam_conv): Conv2d(3, 64, kernel_size=(3, 3), stride=(2, 2), padding=(1, 1))
        )
        (1): MobileOneBlock(
          (se): Identity()
          (activation): GELU(approximate='none')
          (reparam_conv): Conv2d(64, 64, kernel_size=(3, 3), stride=(2, 2), padding=(1, 1), groups=64)
        )
        (2): MobileOneBlock(
          (se): Identity()
          (activation): GELU(approximate='none')
          (reparam_conv): Conv2d(64, 64, kernel_size=(1, 1), stride=(1, 1))
        )
      )
      (network): ModuleList(
        (0): Sequential(
          (0): RepMixerBlock(
            (token_mixer): RepMixer(
              (reparam_conv): Conv2d(64, 64, kernel_size=(3, 3), stride=(1, 1), padding=(1, 1), groups=64)
            )
            (convffn): ConvFFN(
              (conv): Sequential(
                (conv): Conv2d(64, 64, kernel_size=(7, 7), stride=(1, 1), padding=(3, 3), groups=64, bias=False)
                (bn): BatchNorm2d(64, eps=1e-05, momentum=0.1, affine=True, track_running_stats=True)
              )
              (fc1): Conv2d(64, 192, kernel_size=(1, 1), stride=(1, 1))
              (act): GELU(approximate='none')
              (fc2): Conv2d(192, 64, kernel_size=(1, 1), stride=(1, 1))
              (drop): Dropout(p=0.0, inplace=False)
            )
            (drop_path): Identity()
          )
          (1): RepMixerBlock(
            (token_mixer): RepMixer(
              (reparam_conv): Conv2d(64, 64, kernel_size=(3, 3), stride=(1, 1), padding=(1, 1), groups=64)
            )
            (convffn): ConvFFN(
              (conv): Sequential(
                (conv): Conv2d(64, 64, kernel_size=(7, 7), stride=(1, 1), padding=(3, 3), groups=64, bias=False)
                (bn): BatchNorm2d(64, eps=1e-05, momentum=0.1, affine=True, track_running_stats=True)
              )
              (fc1): Conv2d(64, 192, kernel_size=(1, 1), stride=(1, 1))
              (act): GELU(approximate='none')
              (fc2): Conv2d(192, 64, kernel_size=(1, 1), stride=(1, 1))
              (drop): Dropout(p=0.0, inplace=False)
            )
            (drop_path): Identity()
          )
        )
        (1): PatchEmbed(
          (proj): Sequential(
            (0): ReparamLargeKernelConv(
              (activation): GELU(approximate='none')
              (se): Identity()
              (lkb_reparam): Conv2d(64, 128, kernel_size=(7, 7), stride=(2, 2), padding=(3, 3), groups=64)
            )
            (1): MobileOneBlock(
              (se): Identity()
              (activation): GELU(approximate='none')
              (reparam_conv): Conv2d(128, 128, kernel_size=(1, 1), stride=(1, 1))
            )
          )
        )
        (2): Sequential(
          (0): RepMixerBlock(
            (token_mixer): RepMixer(
              (reparam_conv): Conv2d(128, 128, kernel_size=(3, 3), stride=(1, 1), padding=(1, 1), groups=128)
            )
            (convffn): ConvFFN(
              (conv): Sequential(
                (conv): Conv2d(128, 128, kernel_size=(7, 7), stride=(1, 1), padding=(3, 3), groups=128, bias=False)
                (bn): BatchNorm2d(128, eps=1e-05, momentum=0.1, affine=True, track_running_stats=True)
              )
              (fc1): Conv2d(128, 384, kernel_size=(1, 1), stride=(1, 1))
              (act): GELU(approximate='none')
              (fc2): Conv2d(384, 128, kernel_size=(1, 1), stride=(1, 1))
              (drop): Dropout(p=0.0, inplace=False)
            )
            (drop_path): Identity()
          )
          (1): RepMixerBlock(
            (token_mixer): RepMixer(
              (reparam_conv): Conv2d(128, 128, kernel_size=(3, 3), stride=(1, 1), padding=(1, 1), groups=128)
            )
            (convffn): ConvFFN(
              (conv): Sequential(
                (conv): Conv2d(128, 128, kernel_size=(7, 7), stride=(1, 1), padding=(3, 3), groups=128, bias=False)
                (bn): BatchNorm2d(128, eps=1e-05, momentum=0.1, affine=True, track_running_stats=True)
              )
              (fc1): Conv2d(128, 384, kernel_size=(1, 1), stride=(1, 1))
              (act): GELU(approximate='none')
              (fc2): Conv2d(384, 128, kernel_size=(1, 1), stride=(1, 1))
              (drop): Dropout(p=0.0, inplace=False)
            )
            (drop_path): Identity()
          )
          (2): RepMixerBlock(
            (token_mixer): RepMixer(
              (reparam_conv): Conv2d(128, 128, kernel_size=(3, 3), stride=(1, 1), padding=(1, 1), groups=128)
            )
            (convffn): ConvFFN(
              (conv): Sequential(
                (conv): Conv2d(128, 128, kernel_size=(7, 7), stride=(1, 1), padding=(3, 3), groups=128, bias=False)
                (bn): BatchNorm2d(128, eps=1e-05, momentum=0.1, affine=True, track_running_stats=True)
              )
              (fc1): Conv2d(128, 384, kernel_size=(1, 1), stride=(1, 1))
              (act): GELU(approximate='none')
              (fc2): Conv2d(384, 128, kernel_size=(1, 1), stride=(1, 1))
              (drop): Dropout(p=0.0, inplace=False)
            )
            (drop_path): Identity()
          )
          (3): RepMixerBlock(
            (token_mixer): RepMixer(
              (reparam_conv): Conv2d(128, 128, kernel_size=(3, 3), stride=(1, 1), padding=(1, 1), groups=128)
            )
            (convffn): ConvFFN(
              (conv): Sequential(
                (conv): Conv2d(128, 128, kernel_size=(7, 7), stride=(1, 1), padding=(3, 3), groups=128, bias=False)
                (bn): BatchNorm2d(128, eps=1e-05, momentum=0.1, affine=True, track_running_stats=True)
              )
              (fc1): Conv2d(128, 384, kernel_size=(1, 1), stride=(1, 1))
              (act): GELU(approximate='none')
              (fc2): Conv2d(384, 128, kernel_size=(1, 1), stride=(1, 1))
              (drop): Dropout(p=0.0, inplace=False)
            )
            (drop_path): Identity()
          )
          (4): RepMixerBlock(
            (token_mixer): RepMixer(
              (reparam_conv): Conv2d(128, 128, kernel_size=(3, 3), stride=(1, 1), padding=(1, 1), groups=128)
            )
            (convffn): ConvFFN(
              (conv): Sequential(
                (conv): Conv2d(128, 128, kernel_size=(7, 7), stride=(1, 1), padding=(3, 3), groups=128, bias=False)
                (bn): BatchNorm2d(128, eps=1e-05, momentum=0.1, affine=True, track_running_stats=True)
              )
              (fc1): Conv2d(128, 384, kernel_size=(1, 1), stride=(1, 1))
              (act): GELU(approximate='none')
              (fc2): Conv2d(384, 128, kernel_size=(1, 1), stride=(1, 1))
              (drop): Dropout(p=0.0, inplace=False)
            )
            (drop_path): Identity()
          )
          (5): RepMixerBlock(
            (token_mixer): RepMixer(
              (reparam_conv): Conv2d(128, 128, kernel_size=(3, 3), stride=(1, 1), padding=(1, 1), groups=128)
            )
            (convffn): ConvFFN(
              (conv): Sequential(
                (conv): Conv2d(128, 128, kernel_size=(7, 7), stride=(1, 1), padding=(3, 3), groups=128, bias=False)
                (bn): BatchNorm2d(128, eps=1e-05, momentum=0.1, affine=True, track_running_stats=True)
              )
              (fc1): Conv2d(128, 384, kernel_size=(1, 1), stride=(1, 1))
              (act): GELU(approximate='none')
              (fc2): Conv2d(384, 128, kernel_size=(1, 1), stride=(1, 1))
              (drop): Dropout(p=0.0, inplace=False)
            )
            (drop_path): Identity()
          )
        )
        (3): PatchEmbed(
          (proj): Sequential(
            (0): ReparamLargeKernelConv(
              (activation): GELU(approximate='none')
              (se): SEModule(
                (fc1): Conv2d(256, 64, kernel_size=(1, 1), stride=(1, 1))
                (bn): Identity()
                (act): ReLU(inplace=True)
                (fc2): Conv2d(64, 256, kernel_size=(1, 1), stride=(1, 1))
                (gate): Sigmoid()
              )
              (lkb_reparam): Conv2d(128, 256, kernel_size=(7, 7), stride=(2, 2), padding=(3, 3), groups=128)
            )
            (1): MobileOneBlock(
              (se): Identity()
              (activation): GELU(approximate='none')
              (reparam_conv): Conv2d(256, 256, kernel_size=(1, 1), stride=(1, 1))
            )
          )
        )
        (4): Sequential(
          (0): RepMixerBlock(
            (token_mixer): RepMixer(
              (reparam_conv): Conv2d(256, 256, kernel_size=(3, 3), stride=(1, 1), padding=(1, 1), groups=256)
            )
            (convffn): ConvFFN(
              (conv): Sequential(
                (conv): Conv2d(256, 256, kernel_size=(7, 7), stride=(1, 1), padding=(3, 3), groups=256, bias=False)
                (bn): BatchNorm2d(256, eps=1e-05, momentum=0.1, affine=True, track_running_stats=True)
              )
              (fc1): Conv2d(256, 768, kernel_size=(1, 1), stride=(1, 1))
              (act): GELU(approximate='none')
              (fc2): Conv2d(768, 256, kernel_size=(1, 1), stride=(1, 1))
              (drop): Dropout(p=0.0, inplace=False)
            )
            (drop_path): Identity()
          )
          (1): RepMixerBlock(
            (token_mixer): RepMixer(
              (reparam_conv): Conv2d(256, 256, kernel_size=(3, 3), stride=(1, 1), padding=(1, 1), groups=256)
            )
            (convffn): ConvFFN(
              (conv): Sequential(
                (conv): Conv2d(256, 256, kernel_size=(7, 7), stride=(1, 1), padding=(3, 3), groups=256, bias=False)
                (bn): BatchNorm2d(256, eps=1e-05, momentum=0.1, affine=True, track_running_stats=True)
              )
              (fc1): Conv2d(256, 768, kernel_size=(1, 1), stride=(1, 1))
              (act): GELU(approximate='none')
              (fc2): Conv2d(768, 256, kernel_size=(1, 1), stride=(1, 1))
              (drop): Dropout(p=0.0, inplace=False)
            )
            (drop_path): Identity()
          )
          (2): RepMixerBlock(
            (token_mixer): RepMixer(
              (reparam_conv): Conv2d(256, 256, kernel_size=(3, 3), stride=(1, 1), padding=(1, 1), groups=256)
            )
            (convffn): ConvFFN(
              (conv): Sequential(
                (conv): Conv2d(256, 256, kernel_size=(7, 7), stride=(1, 1), padding=(3, 3), groups=256, bias=False)
                (bn): BatchNorm2d(256, eps=1e-05, momentum=0.1, affine=True, track_running_stats=True)
              )
              (fc1): Conv2d(256, 768, kernel_size=(1, 1), stride=(1, 1))
              (act): GELU(approximate='none')
              (fc2): Conv2d(768, 256, kernel_size=(1, 1), stride=(1, 1))
              (drop): Dropout(p=0.0, inplace=False)
            )
            (drop_path): Identity()
          )
          (3): RepMixerBlock(
            (token_mixer): RepMixer(
              (reparam_conv): Conv2d(256, 256, kernel_size=(3, 3), stride=(1, 1), padding=(1, 1), groups=256)
            )
            (convffn): ConvFFN(
              (conv): Sequential(
                (conv): Conv2d(256, 256, kernel_size=(7, 7), stride=(1, 1), padding=(3, 3), groups=256, bias=False)
                (bn): BatchNorm2d(256, eps=1e-05, momentum=0.1, affine=True, track_running_stats=True)
              )
              (fc1): Conv2d(256, 768, kernel_size=(1, 1), stride=(1, 1))
              (act): GELU(approximate='none')
              (fc2): Conv2d(768, 256, kernel_size=(1, 1), stride=(1, 1))
              (drop): Dropout(p=0.0, inplace=False)
            )
            (drop_path): Identity()
          )
          (4): RepMixerBlock(
            (token_mixer): RepMixer(
              (reparam_conv): Conv2d(256, 256, kernel_size=(3, 3), stride=(1, 1), padding=(1, 1), groups=256)
            )
            (convffn): ConvFFN(
              (conv): Sequential(
                (conv): Conv2d(256, 256, kernel_size=(7, 7), stride=(1, 1), padding=(3, 3), groups=256, bias=False)
                (bn): BatchNorm2d(256, eps=1e-05, momentum=0.1, affine=True, track_running_stats=True)
              )
              (fc1): Conv2d(256, 768, kernel_size=(1, 1), stride=(1, 1))
              (act): GELU(approximate='none')
              (fc2): Conv2d(768, 256, kernel_size=(1, 1), stride=(1, 1))
              (drop): Dropout(p=0.0, inplace=False)
            )
            (drop_path): Identity()
          )
          (5): RepMixerBlock(
            (token_mixer): RepMixer(
              (reparam_conv): Conv2d(256, 256, kernel_size=(3, 3), stride=(1, 1), padding=(1, 1), groups=256)
            )
            (convffn): ConvFFN(
              (conv): Sequential(
                (conv): Conv2d(256, 256, kernel_size=(7, 7), stride=(1, 1), padding=(3, 3), groups=256, bias=False)
                (bn): BatchNorm2d(256, eps=1e-05, momentum=0.1, affine=True, track_running_stats=True)
              )
              (fc1): Conv2d(256, 768, kernel_size=(1, 1), stride=(1, 1))
              (act): GELU(approximate='none')
              (fc2): Conv2d(768, 256, kernel_size=(1, 1), stride=(1, 1))
              (drop): Dropout(p=0.0, inplace=False)
            )
            (drop_path): Identity()
          )
          (6): RepMixerBlock(
            (token_mixer): RepMixer(
              (reparam_conv): Conv2d(256, 256, kernel_size=(3, 3), stride=(1, 1), padding=(1, 1), groups=256)
            )
            (convffn): ConvFFN(
              (conv): Sequential(
                (conv): Conv2d(256, 256, kernel_size=(7, 7), stride=(1, 1), padding=(3, 3), groups=256, bias=False)
                (bn): BatchNorm2d(256, eps=1e-05, momentum=0.1, affine=True, track_running_stats=True)
              )
              (fc1): Conv2d(256, 768, kernel_size=(1, 1), stride=(1, 1))
              (act): GELU(approximate='none')
              (fc2): Conv2d(768, 256, kernel_size=(1, 1), stride=(1, 1))
              (drop): Dropout(p=0.0, inplace=False)
            )
            (drop_path): Identity()
          )
          (7): RepMixerBlock(
            (token_mixer): RepMixer(
              (reparam_conv): Conv2d(256, 256, kernel_size=(3, 3), stride=(1, 1), padding=(1, 1), groups=256)
            )
            (convffn): ConvFFN(
              (conv): Sequential(
                (conv): Conv2d(256, 256, kernel_size=(7, 7), stride=(1, 1), padding=(3, 3), groups=256, bias=False)
                (bn): BatchNorm2d(256, eps=1e-05, momentum=0.1, affine=True, track_running_stats=True)
              )
              (fc1): Conv2d(256, 768, kernel_size=(1, 1), stride=(1, 1))
              (act): GELU(approximate='none')
              (fc2): Conv2d(768, 256, kernel_size=(1, 1), stride=(1, 1))
              (drop): Dropout(p=0.0, inplace=False)
            )
            (drop_path): Identity()
          )
          (8): RepMixerBlock(
            (token_mixer): RepMixer(
              (reparam_conv): Conv2d(256, 256, kernel_size=(3, 3), stride=(1, 1), padding=(1, 1), groups=256)
            )
            (convffn): ConvFFN(
              (conv): Sequential(
                (conv): Conv2d(256, 256, kernel_size=(7, 7), stride=(1, 1), padding=(3, 3), groups=256, bias=False)
                (bn): BatchNorm2d(256, eps=1e-05, momentum=0.1, affine=True, track_running_stats=True)
              )
              (fc1): Conv2d(256, 768, kernel_size=(1, 1), stride=(1, 1))
              (act): GELU(approximate='none')
              (fc2): Conv2d(768, 256, kernel_size=(1, 1), stride=(1, 1))
              (drop): Dropout(p=0.0, inplace=False)
            )
            (drop_path): Identity()
          )
          (9): RepMixerBlock(
            (token_mixer): RepMixer(
              (reparam_conv): Conv2d(256, 256, kernel_size=(3, 3), stride=(1, 1), padding=(1, 1), groups=256)
            )
            (convffn): ConvFFN(
              (conv): Sequential(
                (conv): Conv2d(256, 256, kernel_size=(7, 7), stride=(1, 1), padding=(3, 3), groups=256, bias=False)
                (bn): BatchNorm2d(256, eps=1e-05, momentum=0.1, affine=True, track_running_stats=True)
              )
              (fc1): Conv2d(256, 768, kernel_size=(1, 1), stride=(1, 1))
              (act): GELU(approximate='none')
              (fc2): Conv2d(768, 256, kernel_size=(1, 1), stride=(1, 1))
              (drop): Dropout(p=0.0, inplace=False)
            )
            (drop_path): Identity()
          )
        )
        (5): PatchEmbed(
          (proj): Sequential(
            (0): ReparamLargeKernelConv(
              (activation): GELU(approximate='none')
              (se): SEModule(
                (fc1): Conv2d(512, 128, kernel_size=(1, 1), stride=(1, 1))
                (bn): Identity()
                (act): ReLU(inplace=True)
                (fc2): Conv2d(128, 512, kernel_size=(1, 1), stride=(1, 1))
                (gate): Sigmoid()
              )
              (lkb_reparam): Conv2d(256, 512, kernel_size=(7, 7), stride=(2, 2), padding=(3, 3), groups=256)
            )
            (1): MobileOneBlock(
              (se): Identity()
              (activation): GELU(approximate='none')
              (reparam_conv): Conv2d(512, 512, kernel_size=(1, 1), stride=(1, 1))
            )
          )
        )
        (6): RepCPE(
          (reparam_conv): Conv2d(512, 512, kernel_size=(7, 7), stride=(1, 1), padding=(3, 3), groups=512)
        )
        (7): Sequential(
          (0): AttentionBlock(
            (norm): BatchNorm2d(512, eps=1e-05, momentum=0.1, affine=True, track_running_stats=True)
            (token_mixer): MHSA(
              (qkv): Linear(in_features=512, out_features=1536, bias=False)
              (attn_drop): Dropout(p=0.0, inplace=False)
              (proj): Linear(in_features=512, out_features=512, bias=True)
              (proj_drop): Dropout(p=0.0, inplace=False)
            )
            (convffn): ConvFFN(
              (conv): Sequential(
                (conv): Conv2d(512, 512, kernel_size=(7, 7), stride=(1, 1), padding=(3, 3), groups=512, bias=False)
                (bn): BatchNorm2d(512, eps=1e-05, momentum=0.1, affine=True, track_running_stats=True)
              )
              (fc1): Conv2d(512, 1536, kernel_size=(1, 1), stride=(1, 1))
              (act): GELU(approximate='none')
              (fc2): Conv2d(1536, 512, kernel_size=(1, 1), stride=(1, 1))
              (drop): Dropout(p=0.0, inplace=False)
            )
            (drop_path): Identity()
          )
          (1): AttentionBlock(
            (norm): BatchNorm2d(512, eps=1e-05, momentum=0.1, affine=True, track_running_stats=True)
            (token_mixer): MHSA(
              (qkv): Linear(in_features=512, out_features=1536, bias=False)
              (attn_drop): Dropout(p=0.0, inplace=False)
              (proj): Linear(in_features=512, out_features=512, bias=True)
              (proj_drop): Dropout(p=0.0, inplace=False)
            )
            (convffn): ConvFFN(
              (conv): Sequential(
                (conv): Conv2d(512, 512, kernel_size=(7, 7), stride=(1, 1), padding=(3, 3), groups=512, bias=False)
                (bn): BatchNorm2d(512, eps=1e-05, momentum=0.1, affine=True, track_running_stats=True)
              )
              (fc1): Conv2d(512, 1536, kernel_size=(1, 1), stride=(1, 1))
              (act): GELU(approximate='none')
              (fc2): Conv2d(1536, 512, kernel_size=(1, 1), stride=(1, 1))
              (drop): Dropout(p=0.0, inplace=False)
            )
            (drop_path): Identity()
          )
        )
      )
      (conv_exp): MobileOneBlock(
        (se): SEBlock(
          (reduce): Conv2d(1024, 64, kernel_size=(1, 1), stride=(1, 1))
          (expand): Conv2d(64, 1024, kernel_size=(1, 1), stride=(1, 1))
        )
        (activation): GELU(approximate='none')
        (reparam_conv): Conv2d(512, 1024, kernel_size=(3, 3), stride=(1, 1), padding=(1, 1), groups=512)
      )
      (head): GlobalPool2D(
        (pool): GlobalPool()
      )
    )
  )
  (transformer): TextTransformer(
    (embedding_layer): Embedding(49408, 512)
    (positional_embedding): LearnablePositionalEmbedding(num_embeddings=77, embedding_dim=512, padding_idx=None)
    (embedding_dropout): Dropout(p=0.0, inplace=False)
    (transformer): ModuleList(
      (0): RepMixerBlock(
        (token_mixer): RepMixer(
          (reparam_conv): Conv2d(512, 512, kernel_size=(1, 11), stride=(1, 1), padding=(0, 5), groups=512)
        )
        (convffn): ConvFFN(
          (conv): Sequential(
            (conv): Conv2d(512, 512, kernel_size=(1, 11), stride=(1, 1), padding=(0, 5), groups=512, bias=False)
            (bn): BatchNorm2d(512, eps=1e-05, momentum=0.1, affine=True, track_running_stats=True)
          )
          (fc1): Conv2d(512, 2048, kernel_size=(1, 1), stride=(1, 1))
          (act): GELU(approximate='none')
          (fc2): Conv2d(2048, 512, kernel_size=(1, 1), stride=(1, 1))
          (drop): Dropout(p=0.0, inplace=False)
        )
        (drop_path): Identity()
      )
      (1-4): 4 x TransformerEncoder(embed_dim=512, ffn_dim=2048, dropout=0.0, ffn_dropout=0.0, stochastic_dropout=0.0, attn_fn=MultiHeadAttention, act_fn=GELU, norm_fn=layer_norm_fp32)
      (5): RepMixerBlock(
        (token_mixer): RepMixer(
          (reparam_conv): Conv2d(512, 512, kernel_size=(1, 11), stride=(1, 1), padding=(0, 5), groups=512)
        )
        (convffn): ConvFFN(
          (conv): Sequential(
            (conv): Conv2d(512, 512, kernel_size=(1, 11), stride=(1, 1), padding=(0, 5), groups=512, bias=False)
            (bn): BatchNorm2d(512, eps=1e-05, momentum=0.1, affine=True, track_running_stats=True)
          )
          (fc1): Conv2d(512, 2048, kernel_size=(1, 1), stride=(1, 1))
          (act): GELU(approximate='none')
          (fc2): Conv2d(2048, 512, kernel_size=(1, 1), stride=(1, 1))
          (drop): Dropout(p=0.0, inplace=False)
        )
        (drop_path): Identity()
      )
    )
    (final_layer_norm): LayerNormFP32((512,), eps=1e-05, elementwise_affine=True)
  )
)
2024-05-31,17:21:33 | INFO | Teacher Visual Params (mobileclip_s0):
2024-05-31,17:21:33 | INFO | 11.356992M
2024-05-31,17:21:33 | INFO | Teacher Text Params (mobileclip_s0):
…
